dimensionality_reduction_api/app/objects/encoder.pt (torch, 178360 bytes, 14 tensors)

encoder_conv.0.weight f4 [8, 1, 3, 3]
000000 a2 71 58 be 6e 9b 11 3e c7 48 62 be 7a 40 33 be
       -0.21137097 0.14219448 -0.22098075 -0.17505065
000010 43 ab 2b bd ea 0b 9d 3c f0 17 c0 bd b4 a4 8f be
       -0.041911375 0.01917072 -0.09379566 -0.28055346
000020 9f de d6 bd b6 e4 1f 3e f2 7a 32 3e 55 20 fe bd
       -0.1049168 0.1561459 0.17429712 -0.124085106
000030 6d 5a 50 3d 96 18 39 3e 6d 18 47 3e 15 9a a4 3e
       0.050867487 0.18075785 0.19442911 0.32148805
000040 44 94 a5 bd c2 13 bd bd 15 52 fa bd 9a 71 7f 3c
       -0.0808492 -0.09232284 -0.12222687 0.01559105
000050 62 7f c8 bd a3 db 64 3d 10 4a 84 3e c1 d0 95 3e
       -0.09789921 0.055873524 0.25837755 0.2926083
000060 1b e2 c3 bd c1 6f 93 bd 16 78 15 3e 99 58 cc 3e
       -0.095646106 -0.0719905 0.1459659 0.39911345
000070 16 97 2e be 22 57 2e 3a e6 7a 6e bd 48 0d 92 be
       -0.17049822 0.0006650557 -0.058222674 -0.28525758
000080 8a ec 9f be 32 6c 33 be 29 d8 31 3e 5a 24 f7 3c
       -0.31235152 -0.17521742 0.17367615 0.030168701
000090 6a b1 82 3b b2 44 2d be bf 34 36 be 1e 5c 50 be
       0.0039884346 -0.16920736 -0.17793559 -0.2034764
0000a0 25 08 08 be 20 c5 9f bd 34 3f 7b 3e 8a 04 99 3e
       -0.13284357 -0.078012705 0.24535829 0.29886276
0000b0 e3 b1 38 3e 8e 43 26 be 32 73 1e be db 41 23 bd
       0.18036608 -0.16236708 -0.15473631 -0.039857727
0000c0 e1 41 90 bd 14 f0 0a bd 31 99 0a be 42 af 86 3b
       -0.070438154 -0.033920363 -0.13535 0.004110248
0000d0 2c 3c eb 3c 65 74 91 be 97 76 bb 3c 52 40 6f 3e
       0.028715216 -0.28409114 0.022883696 0.2336438
0000e0 5a 8a fc 3d 47 46 b1 3d ee 6d 3c 3d bf 4e 02 3e
       0.12331076 0.086559825 0.046003275 0.12725352
0000f0 b4 26 33 bd 01 07 18 3e ed d1 2d be 8d a6 6b 3e
       -0.043738082 0.14846422 -0.16974612 0.23012753
000100 6d a0 a6 3e ae 7c fc 3d 64 c5 69 bd 72 61 b4 3e
       0.3254427 0.12328468 -0.057073012 0.35230595
000110 c8 03 03 be 3f 87 b4 3b 50 3a 52 3e c8 3e eb 3d
       -0.12794411 0.0055092867 0.20530057 0.11486584

encoder_conv.0.bias f4 [8]
000000 18 bd d8 3e 8d 8f c0 3e 68 51 60 3d 0c 8b 15 3d
       0.42331767 0.3760952 0.054765135 0.03650956
000010 3a 93 a7 3b 58 6b a3 3e c4 d5 97 3e 22 70 15 3e
       0.0051139863 0.31917834 0.29655278 0.14593557

encoder_conv.2.weight f4 [16, 8, 3, 3]
000000 54 1a 22 3e ae 55 1a bd 13 91 02 be cf 94 6f 3d
       0.15830356 -0.037679367 -0.12750654 0.058491524
000010 1a 76 b1 bc dd 1f 96 3d ad b3 ef bd 7f 37 84 3c
       -0.02166276 0.07330296 -0.11704192 0.016139744
000020 fe 7e 6d bb d7 ef 23 3d 58 17 a6 3d d8 e9 08 3e
       -0.0036239023 0.04002365 0.08109921 0.13370454
000030 54 b8 1a bb af 3f 4a 3d 71 d6 9e bc ee 5b 8b 3d
       -0.0023608403 0.04937714 -0.019389363 0.068046436
000040 ae e5 13 3c db 3e 54 3a da 32 df 3d 16 99 5b bd
       0.009026928 0.00080965244 0.10898371 -0.05361279
000050 bc fc 07 bd d9 39 e5 3d 2f 07 7d 3d 91 d9 1a be
       -0.03320001 0.11192674 0.06177443 -0.15122057
000060 4e dd d8 bd 9c b6 d6 bd 46 70 10 bd 7c bf 0a be
       -0.105890855 -0.10484049 -0.035263322 -0.13549608
000070 91 bb 31 3e 28 4e e6 3d b4 bf ca bd 8a 13 d4 3d
       0.17356707 0.11245376 -0.09899846 0.10355289
000080 5b c5 4e 3e f4 1c c8 3d ca 70 1a 3e 58 3a ab 3d
       0.20192473 0.09771147 0.15082088 0.083607376
000090 18 84 84 3d 8a 20 80 bc 03 cb 71 bc 8f c6 12 be
       0.064705074 -0.015640516 -0.014757874 -0.14333557
0000a0 cc 26 11 be e9 0e 1c bc 73 72 45 be c7 13 48 be
       -0.14174956 -0.009525039 -0.1928194 -0.19538794
0000b0 9f 47 0f bd b1 07 35 3d a1 55 87 be 84 fe 7f bd
       -0.034980413 0.04419679 -0.26432517 -0.062498584
0000c0 06 2f 1e be 40 a0 fb 3c 96 7d b6 3d b3 98 a5 bc
       -0.15447626 0.030716062 0.08910672 -0.020214414
0000d0 da e4 e6 bb 7b b9 f3 bc dc e4 82 3c ec e6 e5 3d
       -0.007046324 -0.02975153 0.01597827 0.112256855
0000e0 79 ea bf 3d d3 e3 f6 3d 1f e3 1e 3d 46 03 c0 bd
       0.09370894 0.12055173 0.03879082 -0.09375624
0000f0 e8 89 6d 3d 12 a8 94 3d 73 13 15 be c2 36 5e bd
       0.057992846 0.07258619 -0.145582 -0.05425144
000100 b0 d9 41 3d da 55 92 3d 7e 22 c7 3d 2b 26 91 3d
       0.047326744 0.07145281 0.09723376 0.07087358
000110 3f 12 32 3c 7c 2c e0 bc 40 35 53 3d df fb f0 bc
       0.010868608 -0.027364962 0.051564455 -0.029416976
000120 8a 1b 43 3e f6 0f 0f 3e 96 9f 19 3d 54 a9 83 3d
       0.19053474 0.13970932 0.03750571 0.06428781
000130 47 43 c3 3d dd 07 5b 3e 7e 83 a7 bd d3 4e fd bc
       0.095343165 0.21389718 -0.08179377 -0.030921375
000140 c0 45 62 3d 33 4a bf bd 59 84 1e bd 12 c7 55 bd
       0.0552423 -0.09340324 -0.038700435 -0.0521918
000150 16 8f db bd 99 8a 8a bd 5b 12 c6 bd 95 bb fe 3d
       -0.10720651 -0.06764717 -0.0967147 0.12438122
000160 b8 f3 dd 3d de fe 90 bd 0f 55 a6 3c fc 59 19 bd
       0.10837501 -0.07079862 0.020304231 -0.03743933
000170 55 0a ea bd 33 9e f8 bd 92 39 ad bd 02 a2 6a be
       -0.11427752 -0.12139549 -0.08458246 -0.22913364
000180 17 51 26 bd 0b 27 64 bd 77 40 a0 bd c7 0d d3 3c
       -0.040604677 -0.055701297 -0.07824796 0.025763405
000190 b8 f4 5b 3b 94 13 8e 3d ff f8 be bc dd 75 43 3d
       0.0033562612 0.06937328 -0.02331209 0.047719825
0001a0 58 6d f9 bb 15 ae ed 39 72 ec a0 bc f5 fd c9 3c
       -0.0076119117 0.00045333864 -0.019643996 0.024657229
0001b0 6a 2d a3 bc 1d db 00 3d 5d 15 8f bd e2 8e 87 b9
       -0.019919116 0.031458963 -0.069864966 -0.00025855663
0001c0 89 72 de bc f8 5a 0f bc f4 ab 0a 3e b7 77 00 be
       -0.027154224 -0.008749716 0.13542157 -0.12545668
0001d0 92 66 b2 3c 4e e4 00 3b c9 51 03 bd 76 48 24 3e
       0.021777425 0.001966733 -0.03206042 0.16043267
0001e0 c9 d5 25 3e 8b e7 c6 3b 50 ac bf 3d 09 d0 92 3d
       0.16194834 0.0060700825 0.09359038 0.07168586
0001f0 ba c1 1a 3c fd 8d d9 3c a2 43 74 3d 63 1f 9d 3d
       0.009445602 0.026556963 0.059634812 0.07672002
000200 42 26 de 3d 9d ab 96 bc 70 a3 8d bd d0 9d 55 3d
       0.10847141 -0.018392378 -0.06915939 0.052152455
000210 e9 f3 95 bc f4 fa 52 bc 9d 8d 39 bb 7d 8b 8c bd
       -0.018304782 -0.012877215 -0.0028313168 -0.06862543
000220 f2 ee 94 3c 71 bb ae bd 0c 23 d1 bb 60 1c 0d be
       0.018180344 -0.08531845 -0.0063823517 -0.13780355
000230 65 dd ac 3c 62 55 7f bc 9f 08 53 3d ec 06 83 bd
       0.021101663 -0.015584322 0.051521894 -0.063978046
000240 39 ce f3 3d 0f b9 d2 3d 7e 2d 03 3c e6 d3 80 3e
       0.11904568 0.102892034 0.008006452 0.25161666
000250 93 e3 06 3c e1 96 d7 bd 97 8a aa 3d 0a d7 53 bd
       0.008232969 -0.10526825 0.08327215 -0.05171875
000260 e9 4f de 3c bc a1 84 bc 65 bc 3b bc 2b 40 83 3d
       0.027137714 -0.016190402 -0.011458491 0.064087234
000270 2a cd fc bd 84 21 2f bd 27 3b 01 bd 35 c3 c1 bd
       -0.123438194 -0.042756572 -0.031550553 -0.09461061
000280 ac 52 23 3c c2 9e f1 bc 2d 92 4a bd 6b df 24 be
       0.009968441 -0.029494647 -0.04945581 -0.16100852
000290 8c 20 83 bb 15 97 28 bd 90 19 57 be 32 87 d3 bb
       -0.0040016826 -0.041159708 -0.21005845 -0.0064553255
0002a0 dd 7d 5d 3d a2 39 86 3c 64 05 17 3d 5f 18 ac 3d
       0.05407511 0.016384903 0.036870375 0.08403086
0002b0 fa 6a 6e 3e 75 6e bb 3d a3 c7 15 bd 94 a9 98 3e
       0.23282996 0.091519274 -0.03656734 0.29816878
0002c0 c3 cc f6 bc f3 28 c3 3c 40 e3 c2 bd 49 af 87 bd
       -0.030126935 0.023823237 -0.09516001 -0.0662523
0002d0 b7 71 b5 bd 30 79 ba bd ab 43 16 bd 63 62 a9 3d
       -0.0885958 -0.09105146 -0.036685627 0.08270719
0002e0 01 4a 06 3e 2a 0b b0 3d 8b e3 af 3d a4 25 9b 3d
       0.13114168 0.085958794 0.08588322 0.07575539
0002f0 ef 2e 54 3d 08 ec c8 3d 64 cf 47 bd a0 a4 38 bd
       0.051802572 0.098106444 -0.048781767 -0.045078874
000300 69 c6 20 3e 69 ad 8b bc 86 04 b5 3d 11 66 b0 bd
       0.15700687 -0.017050462 0.088387534 -0.086132176
000310 2a 7f f5 bd 9e e3 92 bd 2f 3c b4 3d 89 af 6f 3d
       -0.11987145 -0.07172321 0.088005416 0.058517013
000320 27 0a e6 bd d6 5d 61 bd 43 ec 5e be 69 e2 dd bc
       -0.11232405 -0.05502113 -0.21769814 -0.0270855
000330 0d fb e6 bd 19 93 86 bc 05 11 75 3c de 77 e3 3c
       -0.11278353 -0.016427564 0.014957671 0.027767118
000340 e8 5e a6 3d 16 9c 9a bc bb 4e c2 bd 92 51 e5 bd
       0.08123571 -0.018873256 -0.09487673 -0.11197199
000350 e4 2e 1d be 59 00 30 3d b8 ff 85 3c 2a 6d 93 3d
       -0.15349919 0.04296908 0.016357288 0.07198556
000360 90 b3 1a bd f7 da 91 bd d3 44 a2 3d 00 af 9f bc
       -0.0377689 -0.07121842 0.079232834 -0.019492626
000370 b7 9b d6 bd 2a c4 a9 bc 68 86 44 be 17 44 f8 bd
       -0.10478919 -0.020723421 -0.19191897 -0.12122362
000380 e0 c3 94 3d 34 8a 8d 3c 5a bf a9 bd ac 62 09 be
       0.07263923 0.017277814 -0.082884505 -0.13416547
000390 6e 27 34 bd 52 ca 8d 3d 72 42 80 bd 9b de 43 3e
       -0.043982916 0.06923355 -0.062626734 0.19127886
0003a0 ec f4 fe 3c 29 46 55 bd 2a 5a 91 bd a7 82 77 3b
       0.031122647 -0.052068863 -0.070972756 0.0037767084
0003b0 13 ad 12 3c 18 37 c6 3d 63 ce ed bd a8 f9 04 be
       0.008952397 0.09678477 -0.11611631 -0.12985861
0003c0 cf 87 e7 3d 19 d0 b8 3c 88 92 ee bc cd 05 fe bd
       0.113052 0.022560166 -0.029122606 -0.1240345
0003d0 08 77 43 bd a6 02 a8 bc 4e d4 21 be 50 7a 80 3d
       -0.04772094 -0.020509075 -0.15803644 0.06273329
0003e0 d1 72 ee 3d 97 c7 12 be 2f fa 1a bd 1f 60 54 bd
       0.11642993 -0.1433395 -0.03783625 -0.05184948
0003f0 4f 20 9d bd 90 a3 0a be d3 12 35 3d c6 7e ef bd
       -0.07672178 -0.13538957 0.044207405 -0.11694102

encoder_conv.2.bias f4 [16]
000000 cc cd 84 bd 63 cb 9c bd f7 8a 82 3d 60 76 20 3c
       -0.06484565 -0.076559804 0.06374162 0.009793848
000010 1d e5 79 3c a6 2a 69 3d e5 bf 46 bc 51 96 4f bd
       0.015252379 0.05692544 -0.012130712 -0.050680462
000020 94 07 ad 3d 7f 6e 5c 3d 09 bf b9 bd 8f 1d 85 bd
       0.08448711 0.053816315 -0.0906964 -0.064997785
000030 69 ea d8 3d 4a 31 e9 bd 4c 52 6e 3d af b2 a4 3d
       0.10591585 -0.11386354 0.058183953 0.08041894

encoder_conv.3.weight f4 [16]
000000 20 9f 7f 3f 06 37 82 3f 5c c4 7f 3f 5d 92 76 3f
       0.9985218 1.0173042 0.99908996 0.9631708
000010 85 99 68 3f 8e 02 85 3f b7 34 77 3f 4c be 7f 3f
       0.9085925 1.0391405 0.9656481 0.99899745
000020 c7 f8 71 3f 62 5b 87 3f 77 87 86 3f 7b 52 88 3f
       0.9452023 1.0574763 1.051009 1.0650171
000030 eb 6a 87 3f 1d 4e 84 3f 9f 95 83 3f e7 bb 82 3f
       1.0579504 1.0336338 1.0280036 1.0213593

encoder_conv.3.bias f4 [16]
000000 dc 7d be 3c 88 8f 2f 3d 52 2e 56 3d 72 5a 64 bc
       0.023253374 0.04286149 0.05229027 -0.0139375795
000010 2c 9b d6 bc 70 f5 bd 3d e1 11 ae bc 4d f9 a2 3b
       -0.026197039 0.09275329 -0.02124876 0.0049735666
000020 f5 99 2f bc 46 1d bc 3c a3 92 6b 3d c4 3d 78 3d
       -0.010717859 0.022963177 0.05751289 0.06060578
000030 82 ca cf 3d 67 71 9a 3d b0 73 74 bc 03 8c a6 3c
       0.10146047 0.07541161 -0.01492016 0.020330435

encoder_conv.3.running_mean f4 [16]
000000 b6 28 0b 3e 87 4c a2 3b da b8 1d be e5 95 8f be
       0.13589749 0.0049529704 -0.15402547 -0.28044048
000010 39 25 82 be 52 27 92 3d db a6 18 be 02 2a 06 bf
       -0.25419024 0.07136406 -0.149074 -0.5240785
000020 7a d4 d6 be ed f4 f3 be 2f e6 58 3e 7e 42 f8 3d
       -0.41958982 -0.476478 0.21181558 0.121220574
000030 6e 6b 72 3e f4 4a 04 be a5 0a b6 3d ef 83 10 3d
       0.23673794 -0.12919217 0.08888749 0.03528207

encoder_conv.3.running_var f4 [16]
000000 ed 37 7a 3d 6e 79 99 3d 8e b6 75 3d 1f d8 8c 3d
       0.06108849 0.07493864 0.05998855 0.06877159
000010 03 20 b3 3c 2f 2c 13 3d 2e cc 93 3d d8 92 75 3d
       0.02186585 0.03593081 0.072166786 0.059954494
000020 ed d4 ba 3c e7 53 ae 3d 98 14 1b 3e 18 96 16 3e
       0.022806609 0.08512097 0.15144575 0.14705694
000030 72 24 58 3d fc cd 57 3d 2b 5d 3d 3d 22 00 35 3d
       0.052769132 0.052686676 0.04623143 0.04418958

encoder_conv.5.weight f4 [32, 16, 3, 3]
000000 99 64 34 be e5 b7 97 bd ce 15 c7 3c 9d 95 75 bc
       -0.176165 -0.07408122 0.02430239 -0.014989284
000010 90 d5 ae bc fd 51 77 3c 57 e1 0a bd 5f 44 6f bd
       -0.021342069 0.015095231 -0.033906307 -0.058414813
000020 de 3c 82 3b 4a ec 52 bd 32 ba e2 3c 78 1d 26 be
       0.003974541 -0.051494874 0.027676675 -0.16222179
000030 78 f5 79 3b 04 ac a6 bc e6 13 d7 bb 66 67 f1 ba
       0.0038140696 -0.020345695 -0.0065636514 -0.0018417656
000040 41 07 52 bc f1 a2 4d 3d e3 48 df 3d 8d 2d f1 3d
       -0.012819112 0.05020422 0.10902574 0.11776266
000050 a6 bf cb bc 02 d6 62 3d 87 e2 f0 3d 64 8c a4 bd
       -0.024871659 0.055379875 0.11761957 -0.0803459
000060 2b 74 e6 3d 52 da a0 3d ab 28 7d 3b 7b ce 47 bc
       0.11252626 0.07854141 0.0038628976 -0.012195225
000070 fc ca 41 bd 94 5b ce 3d f0 29 37 bd a8 de 60 3c
       -0.04731272 0.10076061 -0.04471773 0.01372496
000080 51 9a 7d 3d 07 af ab 3d bb 1f c2 3b 7d 56 70 3c
       0.061914746 0.08382993 0.0059241927 0.014669058
000090 47 24 e3 bc 89 a7 db bc 07 92 c7 3b cb d3 8e bd
       -0.02772726 -0.026813285 0.006090406 -0.0697399
0000a0 91 c6 dd b9 06 86 be bc e2 9f e7 3d b9 c3 70 bc
       -0.00042300348 -0.023257267 0.11309792 -0.014695101
0000b0 65 5d c5 3d f4 71 3a 3d e1 93 06 3d 7d ca 4b be
       0.09636954 0.04551883 0.032855872 -0.19901462
0000c0 0f 85 27 3c e6 c3 a4 3d 5f bd 2d bb 5f 56 84 3d
       0.010224595 0.08045177 -0.002651058 0.064617865
0000d0 e2 fc 47 bd d7 37 cd 3d 0d 3d a9 bc a9 1a ce bd
       -0.048825152 0.10020416 -0.020658994 -0.10063679
0000e0 db 29 9a 3d 4a 01 31 3c 23 c3 dd bc e2 df 92 3d
       0.075275145 0.01080353 -0.027070588 0.071716085
0000f0 c3 16 8a 3d 9a 7a 3d bd fd f5 8e 3d 71 3d d6 bc
       0.06742623 -0.0462595 0.06980512 -0.026152344
000100 21 ea 27 bd 3c 04 96 3d 15 2f 25 bc aa 2b 2d 3d
       -0.040994767 0.073250264 -0.010082026 0.04227797
000110 3f 72 39 3e a8 47 c0 bb bd eb f1 bc d0 17 1c 3c
       0.18109988 -0.005867917 -0.029531354 0.009527162
000120 69 3c 09 bd ca 8f cd bc 7d 91 53 3c 2d b0 c0 3d
       -0.033504877 -0.025092978 0.012913105 0.09408603
000130 9f f1 13 3d c1 66 3a 3d 93 e7 87 bd da c1 a6 bd
       0.0361191 0.04550815 -0.06635966 -0.08142443
000140 4d 68 8b bc e6 45 15 3d 69 73 52 3d 14 23 29 ba
       -0.017017508 0.036443613 0.051379595 -0.00064520654
000150 86 3d ac ba fb 47 11 bd b0 ca 28 be 1c 7b 6f 3d
       -0.0013140894 -0.035469037 -0.16483569 0.058467016
000160 cf b9 7e 3d a6 d9 3d bd 34 24 53 bd 57 61 38 bc
       0.06218892 -0.046350144 -0.051548198 -0.011253676
000170 58 f6 67 3d 7a d0 f5 bd ad af 46 be e9 7e ce bd
       0.056631416 -0.120026544 -0.19402952 -0.100828
000180 f1 45 0e be 38 9a 6c be 25 c1 39 be a2 26 a7 3c
       -0.13893868 -0.23105705 -0.18140085 0.020404164
000190 36 b5 c0 bd 2c 22 c3 3d 1b 81 7b bd cb 66 2a be
       -0.09409563 0.09528002 -0.06140242 -0.16640775
0001a0 a8 2e 60 bd eb d0 a2 bd 84 b6 ee bd 39 a6 e3 bd
       -0.054731995 -0.07950004 -0.11655906 -0.11115689
0001b0 0c d8 b5 bb 26 0d 69 bd 83 79 2b be 01 5a e4 3d
       -0.0055494364 -0.056897305 -0.16745572 0.111499794
0001c0 64 5c 67 bd db 0f 94 3d 29 a3 f9 3c 28 34 ee 3c
       -0.056484595 0.07229587 0.030473309 0.029077604
0001d0 59 0d 83 3d 70 73 8e 3c fb 57 2e 3d 19 08 6c bd
       0.0639903 0.01738903 0.042564373 -0.05762491
0001e0 16 97 65 3d 43 3f ad 3d 57 1a 55 3d 74 fe 06 bd
       0.05605229 0.08459332 0.052027073 -0.03295751
0001f0 1f e2 67 3d 8b ab b1 bc 82 00 f9 3d 4d 73 0a 3c
       0.05661213 -0.021688243 0.121583 0.008450341
000200 60 ce 88 3d 1a 8d 5e 3d b0 82 7a bd 57 9f 86 bd
       0.06679988 0.054333784 -0.06115979 -0.065733604
000210 81 d1 aa bd 75 43 19 3d ac 3f 2d 3b 8f 91 cf bb
       -0.08340741 0.037417848 0.0026435656 -0.0063344906
000220 20 c8 2b 3d 77 9b 1e be 15 d8 d7 bb 10 df 71 bc
       0.0419389 -0.15488993 -0.0065870383 -0.014762655
000230 30 ce 35 3d 07 13 a4 3c a2 bd e7 ba 7b 97 81 3d
       0.04438609 0.020028604 -0.0017680416 0.06327721
000240 f5 5f be bd ed b0 15 bd e9 48 48 bd 8a ae 31 3d
       -0.09295646 -0.036545683 -0.048897658 0.043379344
000250 6f 9a 2b bd b7 c3 95 bd 15 e7 a6 bc 3d dc df bd
       -0.041895326 -0.0731272 -0.02037386 -0.10930679
000260 77 9b a1 bd e6 b3 d8 bb fb e8 62 bc 8b 5d 16 3c
       -0.07890981 -0.0066132424 -0.013849492 0.009177576
000270 c6 96 98 bd 77 f5 c5 bc 24 ad 0b bd 3f fc af 3c
       -0.07450633 -0.024164898 -0.034100667 0.021482585
000280 14 28 cb bb 38 33 83 bd 5a 81 9e bd 50 de 12 3c
       -0.006199846 -0.064062536 -0.077395156 0.008964136
000290 b6 33 91 3a db ec a5 bc cc 5c b2 bd e6 ce f7 bc
       0.0011078033 -0.020254543 -0.08709106 -0.030250024
0002a0 91 7b 82 3d 5a 1d 06 bc 8f 0b 4f bd 80 a3 87 bd
       0.06371225 -0.008185709 -0.050548133 -0.06622982
0002b0 19 4e a6 bd c4 b3 9a bc 94 89 ca bd 6a c6 10 bc
       -0.08120365 -0.018884547 -0.09889522 -0.008836368
0002c0 8c cb 65 3c e4 f7 bc 3c 16 1c 18 3d 1a a2 3a bd
       0.01402558 0.023067422 0.03713616 -0.04556475
0002d0 eb a9 8f 3c 1e f8 9a bc ac b7 8b ba a0 b9 22 3d
       0.017537078 -0.01891714 -0.0010659597 0.039727807
0002e0 15 58 d7 bc 8a a4 8c 3d 56 67 6a bd 8c 65 88 3b
       -0.026287118 0.06867321 -0.057227455 0.004162496
0002f0 b5 20 24 bd 9a c3 c1 3c 09 3f b8 bd c5 38 73 bd
       -0.040070254 0.02365284 -0.08996398 -0.05938031
000300 51 5e b6 bd 42 5e d1 3c b5 b7 06 3d e0 33 ff 3c
       -0.08904708 0.025557641 0.03289004 0.031152666
000310 97 cc 9a bc 19 10 90 bd e7 ee 7c 3d 73 4f 5c bd
       -0.018896384 -0.070343204 0.061751273 -0.053786706
000320 b3 6a b4 3c 07 4b be bc 3f 68 99 3c b1 d9 be bc
       0.022023534 -0.023229135 0.018726466 -0.023297163
000330 c0 6c 22 3d 91 f5 98 bd 19 6e 8a 3b 80 b7 2f 3d
       0.039654493 -0.07468713 0.0042245504 0.04289961
000340 5e aa 76 3d 7c ee 78 bc 02 98 2a 3d 65 d9 40 bd
       0.06022107 -0.015193578 0.041648872 -0.047082324
000350 a6 45 94 3c 92 76 91 3d 35 3b d0 3b 24 0f a7 bd
       0.018099617 0.071026936 0.0063547143 -0.08157185
000360 02 ee 94 bc 16 3c 4f 3d 75 46 66 3c 59 42 7c bd
       -0.018179897 0.05059441 0.014054884 -0.06158671
000370 9b de 84 bd 04 d1 73 3d 89 c0 de 3b ba c8 8e bd
       -0.06487771 0.059525505 0.0067978543 -0.06971879
000380 bc 89 92 3d aa 2b 5c 3d 44 f7 88 bd f8 7c 4b bd
       0.07155177 0.05375258 -0.06687787 -0.049679726
000390 ea 26 0f bd 58 18 91 3d 78 fc e6 3c 79 52 00 bd
       -0.03494922 0.07084721 0.028196558 -0.031328652
0003a0 06 72 b0 bd 41 aa 69 bd 8a 6d 41 bd 27 c2 6c bd
       -0.08615498 -0.057047132 -0.047223605 -0.057802346
0003b0 92 c9 75 3c f2 1f 37 3c c0 2d c9 3c 44 70 46 3c
       0.015001671 0.01117705 0.024557948 0.012111727
0003c0 13 9c 83 3d cd 92 6d 3c cf 7b 95 bc 58 3e d7 bc
       0.06426253 0.014500332 -0.018247513 -0.026274845
0003d0 e5 14 36 bc df e4 49 bc 7e f4 75 bc d5 5d 06 bd
       -0.01111338 -0.0123226335 -0.015011905 -0.03280433
0003e0 35 59 e1 bb 9d d2 c6 bd c0 77 cc 3c 3d ca 97 bd
       -0.0068770894 -0.0970814 0.024959445 -0.07411621
0003f0 32 44 df bc 02 07 43 bd 50 c6 91 bd 69 a2 c1 3b
       -0.027254198 -0.047614105 -0.07117903 0.0059092534

encoder_conv.5.bias f4 [32]
000000 75 f1 e4 bc 2c 10 c5 bd ab 4e 49 3d c6 eb 8d 3d
       -0.027947167 -0.09622225 0.04914729 0.06929736
000010 1d c7 5c 3c e7 3a 1a 3d d7 f5 b9 bb 3e bf 68 3d
       0.013475207 0.03765383 -0.0056750583 0.056823008
000020 0e 18 a0 3c 3d 30 fb bc 64 82 16 3d 03 fb d2 bc
       0.01954272 -0.03066265 0.036745444 -0.025754457
000030 94 75 d1 3d 61 d9 25 bd fa 2c d5 3d ba 65 0c 3d
       0.102275044 -0.04049051 0.10408969 0.0342767
000040 79 32 5d 3d 90 ac d3 3c 5a ef e3 3d 31 21 f6 3d
       0.054003213 0.02583912 0.11129637 0.120180495
000050 fc 43 14 bc 6c 13 12 3c 93 d1 70 bd 42 32 1c bd
       -0.009049412 0.008915763 -0.058793616 -0.038133867
000060 fa a3 1a 3d e0 d9 0d 3d 87 b7 48 3d b4 7a cf 3b
       0.037754036 0.03463161 0.04900315 0.006331766
000070 ea 6b 6f 3d ef b4 53 bd 36 f3 c0 3c 58 03 fc 3d
       0.058452524 -0.051686224 0.023553472 0.12305325

encoder_lin.0.weight f4 [128, 288]
000000 fb 21 40 bc a1 9d 3e be 64 3d 93 bd fa 35 c2 3d
       -0.011726852 -0.18614818 -0.07189444 0.094829515
000010 b8 74 43 3d 56 9f 33 bd 8d a5 90 3a 10 59 93 3c
       0.047718734 -0.043853126 0.0011035666 0.017986804
000020 b0 50 2a 3e 3d 6f ce bc f2 73 1b 3d 47 7a 33 3d
       0.16632342 -0.025199527 0.03795237 0.043817785
000030 6f 35 6a 3c 2c 24 fa bc a7 6c a1 3c 55 a7 10 bd
       0.014294966 -0.030534826 0.01970513 -0.03531583
000040 b8 51 db bc 85 0c 0c bd 04 d7 e2 3d 48 40 91 bc
       -0.026772365 -0.034191627 0.11076167 -0.017730847
000050 62 09 89 bd 0a 39 8d be 71 31 b9 3d ac d5 20 bd
       -0.06691243 -0.2758258 0.09042633 -0.039266273
000060 7b 04 03 bc 55 68 12 bc cf 4f 95 bd ad 93 55 bd
       -0.007996674 -0.0089360075 -0.07290613 -0.052142788
000070 e1 14 a2 be 0c a2 82 3d 80 cb fa 3d 3d a8 96 3d
       -0.31656554 0.06378564 0.12245846 0.07356308
000080 15 25 74 3e 03 b2 02 3d d3 3d 75 bd 78 42 a7 bd
       0.2384227 0.031908046 -0.059873413 -0.08166975
000090 1d 2b cd bd d2 b5 f4 3c f4 fd 59 bd d5 6a 48 3d
       -0.10017989 0.029871855 -0.053220704 0.048930008
0000a0 7a af d0 3d 12 88 45 3c be 97 19 3e bf d6 1f 3e
       0.101897195 0.0120563675 0.14999291 0.15609263
0000b0 c4 1f 6a bd e6 7f fa 3c e3 65 15 bd f3 f1 4b 3c
       -0.0571592 0.030578565 -0.03647412 0.012447822
0000c0 f3 7b 19 be 56 f0 36 bd fa 75 19 bd 5d 4b 47 3d
       -0.14988689 -0.044662796 -0.037466027 0.048655856
0000d0 57 df 4d bd 2c 0e 44 3e f7 f1 4a bd 56 a8 79 be
       -0.05026182 0.19146031 -0.049547162 -0.24380621
0000e0 29 64 09 3d 8c 7b 00 3e 49 26 80 bc 6d 85 5d bd
       0.033542786 0.1254713 -0.015643256 -0.054082323
0000f0 fc 7b 73 bd c5 f1 65 ba a4 01 35 3d be f6 95 3c
       -0.059444413 -0.0008771683 0.044191018 0.018306132
000100 81 55 10 be a3 7f 4e 3c d5 f0 ee 3d a2 55 11 3d
       -0.14095117 0.012603673 0.11667029 0.035482056
000110 c6 a1 3e be b0 2e 38 3e 25 17 94 3d 70 f1 ff 3d
       -0.18616399 0.1798656 0.07230977 0.124972224
000120 21 a0 b6 bd 9d d7 e0 bd 02 06 38 3d e0 6c eb bd
       -0.08917261 -0.10978625 0.044927604 -0.11495376
000130 5d fa 90 3d 35 3e 4b be 89 29 52 be 59 67 02 bd
       0.07079003 -0.19847949 -0.20523657 -0.03183684
000140 c0 e4 bf 3d ef fd 84 bd 74 35 e2 3d 96 94 96 be
       0.093698025 -0.064937465 0.110453516 -0.29410237
000150 cd 5a 0f 3e a8 a0 8b 3d de 44 aa 3d 75 9b 3e bd
       0.13999481 0.06817752 0.083139166 -0.046534974
000160 43 b8 a8 3d 74 e8 c9 bd 5c d3 17 bc cf 04 60 bd
       0.0823827 -0.0985879 -0.009266701 -0.054692086
000170 b0 b9 4f be 74 39 a4 3c 5e 1c 24 bd 40 6d 3d bd
       -0.20285678 0.020046927 -0.040066116 -0.046246767
000180 7b 55 7a bd 9d 95 b4 bd cb c9 c7 bd e2 62 4b 3d
       -0.061116677 -0.08817599 -0.09755286 0.04965485
000190 5a c5 fd 3c 23 f2 74 3c ab 27 ca bc 6f 3f cd 3d
       0.030977894 0.014950308 -0.024677118 0.100218646
0001a0 11 6f e4 bd ed dd 3b bd 27 4f 35 3d e0 1f d9 3d
       -0.11153997 -0.04586594 0.04426494 0.10601783
0001b0 53 14 5f 3d 71 fa ef 3a 4a 17 3a 3d 7f 6c 84 3d
       0.054462742 0.001830889 0.045432366 0.064660065
0001c0 89 42 cf 3d 44 89 76 3d bc a0 46 bd 68 a6 1f 3e
       0.101201124 0.0601895 -0.048493132 0.15590823
0001d0 f7 18 3f bb 8c d1 63 bc 29 df 1a 3c 38 a4 38 3c
       -0.0029159167 -0.01390494 0.00945262 0.011269622
0001e0 89 ab 6e bd ad e4 a7 bc b6 b9 17 bc c7 b1 d3 bb
       -0.058269057 -0.020494783 -0.0092605855 -0.0064604017
0001f0 ef 94 ba ba 99 5f 55 bc 88 23 65 3b 23 65 0f bd
       -0.001423506 -0.013023281 0.0034963805 -0.03500856
000200 9b 8a f4 bd 8d 18 83 3d 42 38 ce 3d 2f 99 52 3d
       -0.119404994 0.06401167 0.10069324 0.05141562
000210 6d 76 46 be f8 5d cb be 3a 3d 3d be 97 ef a1 bc
       -0.19381113 -0.3972013 -0.18480387 -0.019767566
000220 e9 fe ac 3d d4 bd fb 3c 97 1b 40 3d 13 6d 41 be
       0.08447058 0.030730166 0.04690131 -0.18889265
000230 36 26 0c 3d 1b c7 1d 3e fe 51 97 3d fd 1a ce bb
       0.03421613 0.15407984 0.07388686 -0.0062898383
000240 27 a9 4a bd cc ef ac bd 24 6e d3 3d a9 1f 00 be
       -0.049477722 -0.08444175 0.10323742 -0.12512077
000250 ba 1e c3 bd aa e0 f2 bd ad 0e 9c 3d 82 14 f7 bd
       -0.09527345 -0.118592575 0.07619987 -0.120644584
000260 a7 9c 07 3e 3e 1d c4 bc 5b 3b 35 be 11 98 58 bd
       0.13243352 -0.023939725 -0.17698424 -0.052879397
000270 73 a4 9a 3d b4 a5 83 be 6c 56 76 ba 71 07 1d 3e
       0.075508974 -0.2571236 -0.0009397033 0.1533487
000280 1d e1 80 bc 51 60 19 be 33 b4 e4 3c 8b f1 9f bd
       -0.015732342 -0.14978148 0.027917957 -0.078097425
000290 c0 b9 9d 3d 94 91 ba bd 92 23 77 3b ff 4d 80 be
       0.077014446 -0.09109798 0.003771041 -0.25059506
0002a0 b4 89 30 bd 09 93 49 be 5e db 3b 3e 3b 8c 7f bc
       -0.043100074 -0.19684996 0.183454 -0.015597398
0002b0 29 b1 02 3d e0 c7 b8 bd 20 63 55 3d b2 8c 8a 3d
       0.031907234 -0.09022498 0.052096486 0.06765117
0002c0 c4 f9 ea 3d 93 6e f5 bd be c6 42 3e db 65 82 bd
       0.1147342 -0.11983981 0.19021127 -0.06367084
0002d0 bb 9d 31 3d a4 2d ca 3d d4 01 72 bd 03 89 e8 be
       0.043363314 0.098719865 -0.059083775 -0.45417032
0002e0 80 eb 39 be b6 06 12 3e c8 45 82 bc 8a 93 4c 3d
       -0.18156242 0.14260373 -0.015902415 0.04994539
0002f0 7e f2 19 3e bb 55 00 3d cd 1d ca bd f2 72 60 be
       0.1503391 0.03133176 -0.09868965 -0.21918848
000300 ed bc c6 3c c4 4f 6f 3d 4c b8 9c 3d a4 1c 15 be
       0.024260009 0.05842568 0.07652339 -0.14561707
000310 10 7c bb be 97 7b 3a be ec dc 11 bd 8f b2 6b bd
       -0.3661809 -0.18211208 -0.03561108 -0.057543334
000320 d5 a3 c1 bd 9e f1 55 3e dd c7 5f 3e 94 bb 6d bb
       -0.094550766 0.20892951 0.21853586 -0.0036275135
000330 2c 6b 53 be 12 a5 a9 be a9 3f ae 3d 8f 23 7f 3d
       -0.20646352 -0.3313375 0.08508236 0.06228977
000340 ec 09 69 bd 6f 11 39 be 3b 65 6f bc 93 25 19 bd
       -0.056894228 -0.18073057 -0.014611538 -0.03738935
000350 d8 40 68 be 65 fe 67 3d 34 4a 80 be 6d 54 46 be
       -0.22680986 0.056639094 -0.25056612 -0.19368143
000360 b7 8a 81 bd 66 54 9a 3d b1 73 8f 3d 94 69 46 be
       -0.06325286 0.07535629 0.07004488 -0.19376212
000370 0a 97 25 be 94 f3 a7 bd 33 79 1e 3d 9f ac 0b bd
       -0.16170898 -0.08200756 0.038689803 -0.03410017
000380 18 da 56 3d 58 4a 78 3b 18 c1 27 3e 80 7e 08 bd
       0.052454084 0.003788611 0.16382253 -0.033323765
000390 3c c2 b4 3d 31 39 21 3d b0 8a 08 3d cc 8c 89 bd
       0.0882611 0.039361183 0.033335388 -0.06716308
0003a0 04 89 0a be 5a 62 fa bd 6f 6b ab 3d 23 66 11 bd
       -0.1352883 -0.1222579 0.08370101 -0.035497796
0003b0 76 a3 a5 3d 11 58 60 bc 07 a3 16 bc 96 08 8e bd
       0.08087818 -0.013692872 -0.009194142 -0.069352314
0003c0 1f 5f 01 3d bc 31 01 be 3d 64 07 3e b8 14 2d bd
       0.031584855 -0.12616628 0.13221832 -0.042256087
0003d0 48 93 29 3c 07 0e eb bc 76 6b b7 3d f9 82 ae 3d
       0.010350056 -0.028693212 0.089560434 0.08521075
0003e0 b5 cf 96 3b d4 07 8c bd 1e 73 e3 3d a0 bd 30 be
       0.0046023973 -0.068374306 0.11105941 -0.17259836
0003f0 be a1 16 bc 0f 3e 88 3d e8 27 f6 bd 64 cb 88 3e
       -0.009193836 0.06652462 -0.1201933 0.26717675

encoder_lin.0.bias f4 [128]
000000 7f 09 86 ba d8 f9 5b bc 20 70 6f bc 59 19 ea 3c
       -0.0010226219 -0.013426267 -0.014614135 0.02857654
000010 8f dc be 3c db 08 83 bd 39 69 ba ba 0f c8 8c bc
       0.02329853 -0.063981734 -0.0014222033 -0.01718524
000020 81 87 88 bd 42 9e 63 3d ef 26 b6 3b 59 f4 58 bb
       -0.0666647 0.05557085 0.0055588405 -0.0033104627
000030 72 1a a2 3c 25 08 73 bc 07 b0 0d 3d 41 f7 be 3b
       0.019788 -0.014833485 0.0345917 0.005827815
000040 c0 8b aa bd c8 c9 e4 bc 29 f7 78 3d d8 cc b4 bc
       -0.083274364 -0.027928248 0.060782585 -0.022070333
000050 50 c1 09 3c e7 8c 7c bd e0 8f b0 3d fa d4 92 bc
       0.008407906 -0.061657812 0.08621192 -0.01792382
000060 77 75 f4 bc 98 c4 02 3d 28 ac a4 ba c6 b7 f3 bc
       -0.029841168 0.031925768 -0.0012563514 -0.029750716
000070 67 93 b9 3b 79 b7 06 bd 84 61 5f bd 7d f8 c8 3d
       0.0056633237 -0.032889817 -0.054536358 0.098130204
000080 20 67 40 3c 05 95 87 3c a0 e9 20 bd 47 35 83 3b
       0.011743337 0.01655055 -0.039285302 0.004004154
000090 b6 2f 80 3d f0 8b af 3d 56 15 70 3d a7 d3 18 3d
       0.062591 0.08571613 0.058614098 0.037311222
0000a0 8f 62 f5 3c 40 94 72 3d a6 6e 93 bc 9a 9b 32 3d
       0.029954223 0.059223413 -0.017997097 0.043605424
0000b0 88 d4 b1 bd 38 00 88 3d 23 e0 83 3c 41 2d 2f ba
       -0.08683115 0.06640667 0.016098088 -0.00066824636
0000c0 bb 68 4a 3d 59 89 79 3d fc 82 99 3c 2b 01 41 bd
       0.049416285 0.060922 0.018739216 -0.047120254
0000d0 3f 43 d3 3d 36 be b0 bd c9 36 cf bc 15 2b 61 3d
       0.103155605 -0.0863003 -0.025294678 0.054972727
0000e0 bb e7 57 3d ef 23 47 3d 60 80 c3 bc 9f 02 a4 39
       0.05271123 0.048618253 -0.023864925 0.0003128247
0000f0 36 d6 d8 bc 1d 1f 76 bd a4 c5 10 3c 83 ae 95 bd
       -0.026469331 -0.060088266 0.008836184 -0.07308676
000100 e1 42 35 3c 0d d0 d0 3c 7e 3a 89 bd f1 2c 83 3d
       0.011063308 0.025489831 -0.067006096 0.06405056
000110 f0 df 4b bd 9b 48 1a 3c 83 2b d7 bc c4 35 27 3d
       -0.04977411 0.009416725 -0.026265865 0.04082276
000120 2c 6d 05 3c 6a 19 1f 3d c5 bc 8c bd c9 e3 20 3c
       0.008143704 0.038842596 -0.068719424 0.009819933
000130 14 61 14 bd 7c ef 81 3d a6 f4 31 3d f1 76 a7 3d
       -0.036225393 0.06344506 0.043446206 0.08176983
000140 5a fb 25 bc 9c 0c 59 bc 13 4e a3 bc dd 18 fc 3c
       -0.010130728 -0.013247635 -0.01993469 0.030773574
000150 a1 98 ca bb f3 b3 04 bd 5b e6 93 3c 66 a9 8e bd
       -0.0061827456 -0.032398175 0.018054178 -0.06965904
000160 94 fc a2 bc 2e fb 1c 3d 34 a1 71 3d 74 4e 12 3d
       -0.01989583 0.03832548 0.058991626 0.03571935
000170 cb fc b5 3d 66 1a d2 3b d0 61 c3 3c 4d 9b 00 bd
       0.08886107 0.0064118383 0.023850352 -0.031398106
000180 61 13 06 3d 2f 7a 2e bd a8 fe 94 3d 4f c8 02 bd
       0.032733325 -0.042596992 0.07275134 -0.03192931
000190 6a 75 6a bd 4d f0 04 3d bc c5 83 bd 8f 41 4e 3d
       -0.05724088 0.03245573 -0.06434199 0.05035549
0001a0 29 55 e8 3b 01 39 9e bd c8 2d 6c bd c4 c2 dd bb
       0.00709023 -0.077257164 -0.057660848 -0.0067676026
0001b0 cd 35 cd 3c 3c 02 ba 3c e8 7d 69 bc 61 24 09 bd
       0.025050068 0.022706144 -0.01425121 -0.03348196
0001c0 87 82 9f bc 8a a7 38 3b 57 35 83 bd 1b 00 90 bc
       -0.01947142 0.0028176033 -0.06406658 -0.017578175
0001d0 3f 60 84 3d 0a f3 12 3d c4 ba 91 3d 6b fa 75 bd
       0.0646367 0.03587631 0.07115701 -0.06005327
0001e0 60 ff aa bc 00 57 1e b8 16 07 9d bc 82 6f 4c 3d
       -0.020873725 -3.775116e-05 -0.019168418 0.04991103
0001f0 91 ca 84 bc bb 34 bf bc f3 a7 07 3d 51 e7 68 3d
       -0.016209872 -0.023340574 0.033119153 0.056861226

encoder_lin.2.weight f4 [4, 128]
000000 9f 45 dd 3d b7 19 3f 3e e8 08 84 3c 54 87 38 3c
       0.10804295 0.18662153 0.016117528 0.0112627335
000010 1c e0 5b bd 3d 37 c7 bc e5 52 7c 3c 2e ab 9f 3d
       -0.053680524 -0.024318332 0.015400623 0.07796322
000020 a6 45 92 bd ad 38 37 bd db 91 0c 3c a8 eb cd 3d
       -0.07142191 -0.044731785 0.0085796965 0.100547135
000030 fd c2 83 3d 74 ab 80 bc 71 9c 12 3e 74 9f 13 3c
       0.064336754 -0.015706755 0.1431749 0.009010185
000040 bf b1 56 3d 03 48 9c bd 30 cb 02 3d b1 cb 35 3d
       0.052415606 -0.07630923 0.031932056 0.04438371
000050 85 c1 15 3e f6 5f 3f 3d a8 6d c3 bd be 5d c0 3c
       0.14624603 0.046722375 -0.095424 0.0234822
000060 23 7e d0 3c 26 80 5e bc c6 44 17 bd 3a ea 7e bd
       0.025450772 -0.013580358 -0.03693082 -0.062235095
000070 b9 3c 33 bd 48 7d 4f 3d b5 fb f0 bd 13 1c da 3c
       -0.04375908 0.050656587 -0.11766759 0.026624715
000080 e9 9c ac bb cb da 1d 3d ba df 45 3d fd d4 27 bd
       -0.0052677286 0.038538735 0.048309065 -0.040974606
000090 1f 7b 38 3d 81 0b 12 bd 4c 5f c7 bc ec 69 d9 bc
       0.045039292 -0.035655502 -0.024337433 -0.026539765
0000a0 cb 03 f2 3d ee 96 88 3c 8f d3 bb bd c7 0e 8e bd
       0.1181713 0.016673531 -0.09171211 -0.06936412
0000b0 f6 3f e6 bc 25 ea 7f bd 24 00 c0 3d f7 24 d9 3c
       -0.02810667 -0.062479157 0.09375027 0.026506884
0000c0 4c 0a a7 3a 08 7b a7 bc 1b 9e 6d bd 3a b6 4c 3d
       0.0012744158 -0.020444408 -0.05801211 0.049978472
0000d0 5a d4 e6 bd 89 36 72 bc c3 77 b4 bc 8c 9c 40 bd
       -0.112709716 -0.01478351 -0.022029763 -0.047024295
0000e0 b7 a6 06 bd af ca 27 be f1 be 40 38 ec 5b 3e 3e
       -0.032873835 -0.16385911 4.5954195e-05 0.18589753
0000f0 2e 1c 15 bb 5e 72 78 bc b3 01 ac 3d 5d a2 b3 bd
       -0.0022752392 -0.015163986 0.083987616 -0.08771203
000100 a8 27 07 3e d6 c2 c2 bc 13 65 6c bd bb 84 be ba
       0.13198721 -0.023774546 -0.05771358 -0.0014535406
000110 01 e8 12 3d be 9f 2a 3d 6a 7f 16 be cc 16 c7 bc
       0.035865787 0.04165625 -0.14697042 -0.024302863
000120 eb 3e 94 3b 34 0b 87 3d 52 e9 43 bd 65 80 c9 bd
       0.004524102 0.06593934 -0.047829933 -0.098389424
000130 4a ed 06 3d 8a 53 a5 bc 65 54 a7 bd a6 df 0a be
       0.03294114 -0.020181436 -0.08170394 -0.13561878
000140 58 22 d3 3d 99 06 1f 3e 36 95 18 3b 9b 0f 9e bc
       0.10309285 0.1552986 0.0023282296 -0.01929455
000150 4f f0 9c bd ea 80 88 bc 35 62 02 3c 48 2e 1f 3d
       -0.07663023 -0.016663034 0.007957985 0.038862497
000160 0e 33 14 bd 78 6e 01 3e 1a 31 e2 3d 2e e9 95 bd
       -0.036181502 0.12639797 0.11044522 -0.07319866
000170 1f 2a c4 bb 95 67 3c 3d 49 20 92 bc c3 c0 80 3d
       -0.0059864665 0.04599722 -0.01783766 0.062867664
000180 5d e5 55 3c c1 e2 cb bb e4 c9 1b 3c bb 48 2a bd
       0.013055173 -0.0062220995 0.009508584 -0.041573267
000190 f3 bc 4b bb 78 7f 7d bd 33 31 97 bd f7 d4 5d be
       -0.0031087964 -0.06188914 -0.07382431 -0.21663271
0001a0 06 fa c4 bd ff 62 46 bd b5 36 e3 ba d1 a9 2b bd
       -0.09618001 -0.048434254 -0.001733503 -0.041909996
0001b0 b1 b8 86 bd ae 5c 08 bc 8b c7 7c 3c 18 1f 41 bc
       -0.06578196 -0.008322878 0.015428434 -0.0117871985
0001c0 57 87 91 3c 16 c9 aa bd 2a 6d e5 bc af 31 b6 3d
       0.01776473 -0.08339135 -0.028006155 0.08896195
0001d0 19 12 b6 3d f7 f1 89 3c 17 93 3a 3d 4c a4 69 bd
       0.088901706 0.01683901 0.045550432 -0.05704145
0001e0 0d 66 c7 3d a7 e2 b6 bb 2e a8 1b 3d dd b0 84 3d
       0.097362615 -0.0055812183 0.038002186 0.064790465
0001f0 50 2d e5 3c 5e ea 73 bc 75 ec 47 bd e9 64 6b 3c
       0.027975708 -0.01488742 -0.048809487 0.014367321
000200 be 8a 39 bd 9d 42 86 bd bb 3b 45 bd e8 06 1b 3b
       -0.04529833 -0.06555674 -0.048152667 0.002365524
000210 9e e7 87 3d d1 3d 01 bd f5 9b 1e bd 65 aa 81 bd
       0.06635974 -0.031553093 -0.03872295 -0.06331328
000220 b8 97 9d bd 4b 83 88 bd 90 64 ca bd cc 89 b7 3c
       -0.07694954 -0.06665667 -0.09882462 0.022404574
000230 f5 43 9f 3d 99 2f f2 3c 73 1a b7 3d 78 a4 cd bc
       0.07776634 0.029563712 0.08940592 -0.025102839
000240 31 1e a1 3d 38 a6 e6 bd 2a 22 2e 3d 76 93 87 bc
       0.07867087 -0.112621725 0.04251305 -0.016549807
000250 e6 05 67 bd a4 3f 19 3d 62 f4 c3 3d 77 b2 07 bd
       -0.05640211 0.037414208 0.09568097 -0.03312918
000260 95 34 91 3c 13 d6 a6 bd 5c 41 87 bd f9 04 28 3d
       0.017725268 -0.081463 -0.06604263 0.041020367
000270 9d e6 97 3c 22 9e 51 3d de e8 52 3c 7b 80 0f bd
       0.018542582 0.051176198 0.012872903 -0.035034638
000280 65 e9 4d 3c ab bd 60 bd d1 07 51 bd 35 87 10 bd
       0.012567853 -0.05486838 -0.051032845 -0.035285193
000290 7a 1e d3 bd 19 92 9a bd e7 c5 d4 bc c1 45 4f 3d
       -0.10308547 -0.07547397 -0.025973273 0.050603632
0002a0 4d d5 49 bd 14 a4 2b 3d 32 8f 7a 3d 61 8c a6 bd
       -0.049275685 0.041904524 0.061171718 -0.08132244
0002b0 75 24 5e 3d bc 11 d0 bc d7 75 15 3c 5e b3 80 bd
       0.054233987 -0.025399081 0.0091223335 -0.062842116
0002c0 8b ba 5b 3c 35 31 86 bd 21 51 06 be 82 80 14 be
       0.0134111745 -0.06552354 -0.13116886 -0.14502147
0002d0 16 49 b7 3d b8 24 97 3d e3 bd 8c bb fb 8d be bd
       0.08949487 0.073800504 -0.004295097 -0.093044244
0002e0 bf e9 10 bd c6 e9 b9 3d 70 cd de ba 78 3a f4 3d
       -0.035379168 0.09077792 -0.0016998481 0.119252145
0002f0 0b 4c 87 3d 08 2e 91 3c d7 68 14 3a c8 0b fd bd
       0.06606301 0.017722145 0.00056613743 -0.12355763
000300 9f 2e 10 3c c3 c9 39 bd 7b 47 62 3d 03 53 87 3d
       0.008800178 -0.04535843 0.05524395 0.0660763
000310 74 5a 13 3d e1 8e c5 3d f1 db 2f be 31 9d fd bb
       0.035974935 0.096463926 -0.17173745 -0.007739686
000320 03 a5 dc 3d af d2 a8 3d 9c 7e ca 3b 8e 7a 89 3d
       0.10773661 0.0824331 0.006179644 0.067128286
000330 71 8d 15 bd 7f 36 33 3c c1 b6 c1 3c 54 4a 3e bd
       -0.036511842 0.010938286 0.023646714 -0.046457604
000340 3f e9 88 3d 7f 54 9b 3d 78 89 ab bd e3 7c 81 bd
       0.06685113 0.07584476 -0.083758295 -0.063226484
000350 5b 5a 0c bd 59 ae 9d bc 56 ad 06 3d fa 0a d1 bd
       -0.034265857 -0.019248175 0.03288015 -0.10207172
000360 77 46 f3 bc 69 69 19 be d7 21 c7 bb 5e eb 65 bd
       -0.029696686 -0.14981617 -0.006077032 -0.056132667
000370 58 b1 05 bd 18 38 7b 3d a2 27 cd 3c 21 da 36 3d
       -0.03263983 0.061332792 0.025043312 0.044641618
000380 f5 60 0b 3d 65 44 84 bd 56 86 96 3d e9 2b ad bc
       0.034028012 -0.06458358 0.07349841 -0.021139102
000390 e6 db 1b bd 6c 0e de bc 58 56 a0 bd b8 a1 8f 3d
       -0.03805151 -0.027106486 -0.07828969 0.07013267
0003a0 ae 37 96 3b 72 9e b6 bc f0 05 aa 3c d8 2b 61 3d
       0.0045842743 -0.02229235 0.020754784 0.054973453
0003b0 c3 0a 60 bc f0 4d e3 3d 29 26 4a bd 5c 32 30 3d
       -0.013674441 0.1109885 -0.0493528 0.043016776
0003c0 31 f6 a4 3d 1b e8 63 3d 4a 15 a5 3d 91 91 90 be
       0.0805477 0.055641275 0.08060701 -0.28236058
0003d0 e8 c7 97 bd 45 9d 47 bd c0 db ea bb 69 01 80 bd
       -0.07411176 -0.04873397 -0.0071673095 -0.06250269
0003e0 8c 16 3a be cb db f3 3d 7c e1 bc 3d 67 d6 4e 3d
       -0.18172663 0.119071566 0.09222695 0.05049744
0003f0 10 35 a0 bd 7f e9 4f bd d6 23 4e bd ef 95 67 3d
       -0.07822621 -0.05075979 -0.050327145 0.056539472

encoder_lin.2.bias f4 [4]
000000 3b e2 db bd 8d 78 ec 3a 9e a7 84 3d e7 08 4f bd
       -0.107365094 0.0018041298 0.06477283 -0.0505456
