embedding_matrix_api/app/objects/model.pt (torch, 117895 bytes, 6 tensors)

_orig_mod.conv1.0.weight f4 [16, 1, 5, 5]
0	0xbe5b3ea4	-0.21410614
1	0xbe345d1e	-0.17613646
2	0xbe535859	-0.2063917
3	0xbd08e5a8	-0.033422142
4	0xbe29eec2	-0.16594985
5	0xbdfb4983	-0.122698806
6	0xbe2dcaf9	-0.16971959
7	0xbe53ba95	-0.20676644
8	0xbe451925	-0.19247873
9	0xbe2484d5	-0.16066296
10	0xbe234f35	-0.15948184
11	0xbe1028d6	-0.14078078
12	0xbd48b49f	-0.04900038
13	0xbe0d5742	-0.13802817
14	0x3dd493e8	0.103797734
15	0x3e5a45fb	0.21315758
16	0x3c4c4f15	0.0124700265
17	0xbc84eb55	-0.016225496
18	0x3cf3eadf	0.029775081
19	0x3e811c29	0.25216797
20	0x3ea1f635	0.31633154
21	0x3e846237	0.25856182
22	0x3ea96101	0.3308182
23	0x3ea9586d	0.33075276
24	0x3c940e50	0.018073231
25	0x3d682eff	0.056685444
26	0x3e5ce008	0.21569836
27	0x3e5ed588	0.21761143
28	0xbda7a0a5	-0.081849374
29	0x3df5080a	0.11964424
30	0x3e200af3	0.15629177
31	0x3e9ad7a3	0.30242643
32	0xbb9ab17b	-0.0047208644
33	0x3de30f9a	0.1108696
34	0xbea877d3	-0.3290392
35	0x3ca54395	0.020173827
36	0xbbbe1593	-0.0058009117
37	0x3e60a5d1	0.21938254
38	0xbd5c9ffb	-0.053863507
39	0xbeb8f5d4	-0.36125052
40	0xbcb8bf7c	-0.022552244
41	0x3e3080bc	0.17236608
42	0x3d8b3da4	0.067988664
43	0xbde72df0	-0.11288059
44	0xbe8b0122	-0.27149302
45	0xbcea1e4b	-0.028578898
46	0xba3fe429	-0.000732007
47	0x3e5bf9e9	0.21482052
48	0x3db49b7d	0.088187195
49	0xbe453c8b	-0.19261377
50	0x3e4ad1ad	0.19806547
51	0xbdf844e2	-0.12122513
52	0xbeab953d	-0.33512297
53	0xbe06df45	-0.13171108
54	0xbdf48f65	-0.11941413
55	0xbd254344	-0.040347353
56	0xbe236ebb	-0.15960209
57	0xbddf62d0	-0.10907519
58	0xbec3a2a5	-0.38210025
59	0xbe7ffdb8	-0.2499913
60	0x3e61f95b	0.22067778
61	0x3d66f6af	0.0563876
62	0xbd3fa676	-0.04678961
63	0x3dfcaedf	0.123380415
64	0xbe086694	-0.1332038
65	0x3d805229	0.06265671
66	0x3e96a685	0.2942392
67	0x3ddad4a5	0.1068509
68	0x3e98fca3	0.29880247
69	0x3defe732	0.11714019
70	0x3e6adcd1	0.22935797
71	0x3dde70c2	0.108613506
72	0x3e5af754	0.2138341
73	0x3e733d53	0.23753862
74	0x3e524f79	0.20538129
75	0xbe35f560	-0.17769384
76	0xbe88ed54	-0.26743567
77	0xbe2deb07	-0.16984187
78	0x3d01a65f	0.031652804
79	0x3e27334f	0.16328166
80	0xbdfd6dac	-0.12374434
81	0xbd4fe033	-0.050750922
82	0xbe78a0e8	-0.24280131
83	0x3e22a296	0.15882334
84	0x3ea96cc0	0.33090782
85	0xbe9f5823	-0.3112193
86	0xbeb01d1a	-0.34397203
87	0xbad677a9	-0.0016362566
88	0xbca132af	-0.019677488
89	0x3ea71ce8	0.3263924
90	0xbec06abc	-0.37581432
91	0x3d74871b	0.05969916
92	0x3ca2168f	0.019786147
93	0x3d8f547e	0.069985375
94	0x3ea6c5f9	0.32572916
95	0xbe2ad5f5	-0.1668318
96	0xbde27721	-0.11057878
97	0x3e492773	0.19643955
98	0x3e2b6f20	0.1674161
99	0x3e871b2b	0.26387915
100	0x3e4657c3	0.19369416
101	0x3e4dacf2	0.20085505
102	0x3c133f97	0.008987329
103	0x3b90dffd	0.0044212327
104	0x3e520c52	0.20512512
105	0x3dae5a1c	0.08513281
106	0x3d400e23	0.04688848
107	0x3c8c65a8	0.017138317
108	0x3e77fc69	0.2421738
109	0x3da9ef20	0.082975626
110	0xbe3af3f0	-0.18257117
111	0xbd4a38c4	-0.049370542
112	0x3e0ceb79	0.137617
113	0x3d316f55	0.043319065
114	0x3e83823c	0.25685298
115	0xbe943866	-0.2894928
116	0xbd756001	-0.05990601
117	0x3d7b460a	0.06134609
118	0x3e264964	0.16238934
119	0x3e92f7ae	0.2870459
120	0xbec2dd87	-0.38059637
121	0xbdea3b2b	-0.11437067
122	0xbe08e4f3	-0.13368587
123	0x3e78ae5c	0.24285263
124	0xbd542846	-0.05179622
125	0xbc8a7a00	-0.016903877
126	0x3e765a64	0.24057919
127	0x3e3fef2b	0.18743579
128	0x3e55787d	0.20846744
129	0x3e6b8b52	0.23002365
130	0xbba19979	-0.0049316254
131	0xbe168873	-0.14700489
132	0x3e3a998f	0.1822264
133	0x3ea0a9e2	0.3137961
134	0xbdaafb26	-0.08348684
135	0xbe3fe7e6	-0.18740806
136	0xbd8ff9a7	-0.07030039
137	0xbe56e0bf	-0.20984171
138	0x3e8c13cd	0.27358857
139	0x3e8042a4	0.25050843
140	0x3c63d53c	0.0139058195
141	0xbeb1c125	-0.3471767
142	0xbe965e9e	-0.29369062
143	0x3e5f3064	0.21795803
144	0x3e20b927	0.1569563
145	0xbd85bdf5	-0.06530372
146	0xbe8b803e	-0.2724628
147	0xbebc421f	-0.36769196
148	0x3d44094a	0.04786042
149	0x3e5845e2	0.21120408
150	0x3dfaaab4	0.1223959
151	0xbbd8e3f5	-0.0066189715
152	0x3da86955	0.082232155
153	0x3e5bff91	0.2148421
154	0x3e38ed23	0.1805921
155	0xbd314933	-0.0432827
156	0xbd707b1a	-0.05871115
157	0xbdc78f1b	-0.09744092
158	0x3e4e4718	0.20144308
159	0x3e68ef32	0.22747496
160	0xbe9690a0	-0.29407215
161	0xbe947bec	-0.29000795
162	0xbe06c862	-0.13162377
163	0x3e6e4ac5	0.2327071
164	0x3db12447	0.086494975
165	0xbeb1585e	-0.3463773
166	0xbdf99139	-0.12185902
167	0x3c8933bb	0.0167483
168	0x3e93b262	0.28847033
169	0x3e6a845c	0.22902054
170	0x3d88f8da	0.0668809
171	0xbb3aebc5	-0.0028521877
172	0x3e04c9e1	0.12967636
173	0x3d903a16	0.07042329
174	0x3e35c150	0.17749524
175	0xbd332ff9	-0.043746922
176	0x3db4ef35	0.088346876
177	0xbdcba5c3	-0.09943726
178	0xbce1aeda	-0.027549196
179	0xbe18a4d0	-0.14906621
180	0xbdd72ba8	-0.10506374
181	0x3d7c22a7	0.061556485
182	0x3ea35282	0.31898886
183	0x3eb8f8e5	0.3612739
184	0x3ec017da	0.37518197
185	0x3e2d8d9f	0.16948555
186	0xbbc16e5f	-0.00590305
187	0x3e809be8	0.25118947
188	0x3d32dc67	0.043667223
189	0xbc5dacc3	-0.013529959
190	0xbe086441	-0.13319494
191	0xbe809602	-0.25114447
192	0xbe67ee3b	-0.22649471
193	0xbdf84502	-0.12122537
194	0x3e1fb17d	0.1559505
195	0xbdfbb056	-0.12289493
196	0xbe368edb	-0.17827933
197	0xbebdd921	-0.3707972
198	0xbda397c8	-0.07987934
199	0x3e2bb92e	0.16769859
200	0x3e6ead44	0.23308283
201	0xbd517c16	-0.05114373
202	0x3db18b03	0.086690925
203	0x3e010827	0.12600766
204	0xbe8cdf6b	-0.27514204
205	0x3e91a45f	0.28445718
206	0x3e714660	0.23562002
207	0x3e18f926	0.14938793
208	0xbe86ec4b	-0.26352152
209	0xbdc843df	-0.097785704
210	0x3d823df7	0.06359475
211	0xbdc582ad	-0.09644065
212	0xbd8675a5	-0.06565408
213	0xbe8b4a47	-0.27205107
214	0xbe4770bf	-0.19476603
215	0x3e517eb1	0.20458485
216	0xbd81883a	-0.06324811
217	0x3e307eb7	0.17235838
218	0x3d1ac571	0.03778595
219	0x3d761a2d	0.060083557
220	0x3e192ef7	0.14959322
221	0xbe04b839	-0.129609
222	0xbdd81e13	-0.10552611
223	0xbdea4deb	-0.11440643
224	0xbe1777b7	-0.14791761
225	0xbd14f7cb	-0.036369126
226	0xbe63a381	-0.2223034
227	0xbec5aeb3	-0.38609847
228	0xbe3092c7	-0.17243491
229	0x3d047d88	0.03234628
230	0x3dd543b3	0.10413303
231	0xbe882dc8	-0.26597428
232	0xbcde1a42	-0.02711213
233	0xbd86d2e4	-0.06583193
234	0xbe0b0163	-0.13574748
235	0x3e88c518	0.2671287
236	0x3e210ca1	0.15727474
237	0x3e031cb4	0.12803918
238	0x3dfc1be6	0.12310009
239	0x3e8e8a6b	0.2783998
240	0x3e2c4a36	0.16825184
241	0x3e0d1813	0.13778715
242	0x3e9c2b5c	0.3050183
243	0xbcd77558	-0.026301071
244	0xbc5a07d5	-0.013307531
245	0xbe6d380a	-0.23165908
246	0x3c7c4900	0.015398264
247	0xbc04fc95	-0.008116861
248	0xbe1b4718	-0.15163839
249	0xbd44b1e0	-0.048021197
250	0xbdd12688	-0.102124274
251	0x3e1e881f	0.15481614
252	0x3e965fe1	0.29370025
253	0x3dd21479	0.10257811
254	0xbea1e764	-0.3162185
255	0xbd24d337	-0.040240493

_orig_mod.conv1.0.bias f4 [16]
0	0x3e1212b9	0.14264955
1	0x3a8299d8	0.0009964062
2	0x3bb6e055	0.0055809417
3	0x3d267c61	0.04064596
4	0xbbada6bf	-0.0052994187
5	0xbc150551	-0.009095506
6	0xbd54db57	-0.05196699
7	0xbb20d55e	-0.002454124
8	0x3df0f5a8	0.11765605
9	0xbccef8d2	-0.025265131
10	0xbaecd96b	-0.0018070167
11	0x3d8ce818	0.06880206
12	0xbb795298	-0.0038043614
13	0x3d2b46f4	0.041815713
14	0x3c9881c2	0.01861656
15	0x3c50e573	0.012750017

_orig_mod.conv2.0.weight f4 [32, 16, 5, 5]
0	0x3d9821ba	0.07428308
1	0xbd381ec7	-0.044951227
2	0x3d80f161	0.062960394
3	0x3df45fa2	0.11932303
4	0x3dc061c0	0.09393644
5	0x3cb8465b	0.022494486
6	0xbd3803b3	-0.044925403
7	0x3d2728a4	0.040810242
8	0xbd4ba341	-0.049716238
9	0xbcff6225	-0.031174729
10	0x3d190f7b	0.03736828
11	0x3cf1cc74	0.029516436
12	0xbcd09568	-0.025461867
13	0xbd8ffb73	-0.07030382
14	0xbdd9ffe5	-0.10644511
15	0x3e0123ce	0.12611315
16	0xbd0c0812	-0.034187384
17	0xbd756bff	-0.059917446
18	0xbdec8781	-0.11549283
19	0xbe07710b	-0.13226716
20	0xbd2f1042	-0.042740114
21	0xbdeda79f	-0.11604237
22	0xbdc5b993	-0.09654536
23	0xbd75b7c2	-0.0599897
24	0xbd08b9fd	-0.033380497
25	0xbc09f2c4	-0.008419696
26	0x3bbacdbe	0.005700796
27	0xbd3053c7	-0.043048646
28	0xbd894d1a	-0.06704159
29	0xbd6b4d04	-0.057446495
30	0xbdc3832c	-0.095465034
31	0xbb8bd2c1	-0.004267067
32	0x3b85154e	0.0040613776
33	0x3d5dd48a	0.05415777
34	0x3d26f556	0.040761314
35	0xbd59f2bd	-0.05321001
36	0xbbf97164	-0.007612394
37	0xbcf3efc1	-0.02977741
38	0x3b8c8b97	0.0042891013
39	0xbbdb1cba	-0.006686774
40	0xbe01e22f	-0.12683938
41	0xbd240f6b	-0.040053766
42	0x3d60806f	0.054809984
43	0x3d784cce	0.06062012
44	0x3b946433	0.0045285462
45	0xbc64ffb4	-0.01397698
46	0x3d8b9711	0.06815923
47	0x3daf99a9	0.0857423
48	0x3da14e3b	0.078762494
49	0xbd731f0c	-0.05935578
50	0x3d080029	0.033203278
51	0x3cab1e3c	0.02088844
52	0x3d9150dc	0.07095501
53	0x3df50f09	0.11965758
54	0x3dbca2f7	0.092107706
55	0xbd90956a	-0.070597485
56	0x3c20be3f	0.009810983
57	0x3c5a3811	0.013319031
58	0x3d4f091f	0.050545808
59	0x3d73e59b	0.05954514
60	0x3cf625ba	0.030047286
61	0x3d82e263	0.06390836
62	0xbba92f26	-0.0051630912
63	0x3d0621de	0.032747142
64	0x3cdd80b2	0.027038906
65	0x3df56a86	0.11983208
66	0xbcb6e7ec	-0.022327386
67	0xbc0a1920	-0.008428842
68	0xbd7ef8c3	-0.062248956
69	0xbd575f25	-0.05258097
70	0xbda484ff	-0.080331795
71	0xbe101927	-0.14072095
72	0xbd4ed076	-0.050491773
73	0xbcea276e	-0.028583255
74	0xbd6e958a	-0.05824808
75	0x3d6e795b	0.058221202
76	0xbd6cff05	-0.057860393
77	0xbcc91991	-0.024548324
78	0xb910b2e4	-0.00013799552
79	0x3d1e0ecc	0.03858833
80	0xbd3e141e	-0.046405904
81	0xbd1315c7	-0.03590944
82	0x3d140ec6	0.0361469
83	0x3d16fd1a	0.03686247
84	0xbcfd134f	-0.030892996
85	0x39b14fba	0.00033819472
86	0x3d92ca89	0.07167537
87	0x3d208d71	0.03919739
88	0x3d2d4277	0.042299714
89	0x3b96bc01	0.0046000485
90	0x3d539ef5	0.051665265
91	0x3d42a67c	0.047522053
92	0xbd26201d	-0.04055797
93	0xbceb6b8e	-0.02873781
94	0xbdab97f5	-0.08378593
95	0xbd8aa7fc	-0.06770322
96	0xbe0fb5af	-0.1403415
97	0xbd82b8d8	-0.063829124
98	0xbe01dcfd	-0.12681957
99	0xbce1ea12	-0.027577434
100	0x3bc698b8	0.006060686
101	0xbd090f10	-0.03346163
102	0xbd32dcfb	-0.043667775
103	0xbb43510f	-0.0029802953
104	0xbd38a84f	-0.045082387
105	0xbd0217cf	-0.031760987
106	0x3bc4de26	0.0060079275
107	0x3da02469	0.07819445
108	0x3cb745f1	0.022372218
109	0x3b89bb05	0.0042032027
110	0x3bd5b245	0.0065214955
111	0x3d8962d4	0.06708303
112	0x3d40abf1	0.047038976
113	0x3d17aab6	0.037028037
114	0x3c46af84	0.012126807
115	0xbd11cf3e	-0.035598032
116	0xbce61684	-0.028086908
117	0x3c8117c5	0.015758405
118	0xbce061ac	-0.027390324
119	0x3da70f31	0.081571944
120	0xbcbb0b22	-0.022832457
121	0xbda49eae	-0.08038078
122	0x3dd006c6	0.10157542
123	0xbd298258	-0.04138407
124	0xbd8a49b2	-0.067523375
125	0xbc9cb402	-0.019128803
126	0x3ce2ec04	0.027700432
127	0xbc53d239	-0.012928539
128	0x3d6233c8	0.055225164
129	0xbd446d08	-0.047955543
130	0x3c57bc33	0.013167429
131	0x3daa1340	0.08304453
132	0x3da7ea73	0.081990145
133	0x3d7c6b1b	0.06162558
134	0xbca51364	-0.020150848
135	0x3d929745	0.071577586
136	0xbb83b595	-0.004019449
137	0xbc43f681	-0.011960627
138	0xbd3b620b	-0.045747798
139	0x3cb02049	0.02149977
140	0xbcbf4363	-0.023347562
141	0xbc745513	-0.014912861
142	0x3cb02712	0.021503005
143	0x3c30e6b7	0.010797194
144	0x3d509eb5	0.050932605
145	0xbd4579e5	-0.04821195
146	0x3d68c28d	0.056826163
147	0x3d1ef3a0	0.038806558
148	0xbd74c288	-0.059755832
149	0x3ce851d8	0.028359339
150	0xbce7fa1c	-0.028317504
151	0xbd357b12	-0.044306822
152	0xbc020278	-0.007935159
153	0x3cfee220	0.031113684
154	0xbb29efc2	-0.002593026
155	0xbd062318	-0.03274831
156	0xbd84c5fc	-0.06483075
157	0xbb2537df	-0.0025210304
158	0x3d05de54	0.03268273
159	0xbcff04bb	-0.031130185
160	0x3d9944b5	0.07483808
161	0x3d88a724	0.066725045
162	0x3d3b1ff9	0.04568479
163	0x3db097de	0.08622716
164	0xbb46031d	-0.0030214258
165	0x3db442de	0.088018164
166	0x3db09d46	0.086237475
167	0xbd32fa83	-0.043695938
168	0xbd2b4194	-0.041810587
169	0xbb1a116b	-0.0023508917
170	0xbd005e8e	-0.031340174
171	0xbdcd07bc	-0.10011241
172	0x3c991890	0.01868847
173	0xbda0a1f1	-0.07843388
174	0xbdb4e4a4	-0.08832672
175	0x3d33e463	0.04391898
176	0x3d736402	0.059421547
177	0x3e08492f	0.13309167
178	0x3ce310a7	0.027717901
179	0xbc061a26	-0.008184945
180	0xbbb346f7	-0.005471106
181	0x3cad4905	0.021152982
182	0x3d82aff2	0.06381215
183	0xbba7569e	-0.005106761
184	0xbdad13f9	-0.08451075
185	0x3e7537fe	0.2394714
186	0x3d1bba12	0.038019247
187	0xbdad39d4	-0.084582955
188	0xbd944b1e	-0.0724089
189	0x3cd352a2	0.025796238
190	0xbdf2ed6a	-0.118616894
191	0xbc4deec9	-0.012569138
192	0x3d5be172	0.0536818
193	0xbc4c5bad	-0.012473029
194	0x3db2e49b	0.08735009
195	0x3d0b56d1	0.03401834
196	0x3da81d32	0.082086936
197	0xbda363bd	-0.07978008
198	0xbdc81c83	-0.09771063
199	0xbd3a7a14	-0.04552658
200	0x3b9c67b2	0.0047731036
201	0x3d6fbc2d	0.058529068
202	0xbceae07a	-0.028671492
203	0xbd07119a	-0.03297577
204	0xbd423817	-0.047416773
205	0xbd68378e	-0.056693606
206	0xbd38d397	-0.045123663
207	0xbdbe0eb2	-0.09280147
208	0xbd5929bd	-0.05301832
209	0x3d629cb8	0.05532524
210	0x3bba1eae	0.005679927
211	0xbdc9055f	-0.098154776
212	0xbcd610a5	-0.026130984
213	0x3c41e3ee	0.011834128
214	0x3d79dadb	0.060999732
215	0xbd7f67b7	-0.06235477
216	0xbd5e8279	-0.054323647
217	0x3d11f0fd	0.035630215
218	0x3dbe789b	0.093003474
219	0xbbe43a91	-0.0069649895
220	0x3cd50c5a	0.026006866
221	0x3d9f2f2f	0.077726714
222	0x3d83819a	0.06421204
223	0x3d4a3750	0.049369156
224	0xbbc89c66	-0.00612216
225	0xbd8cad23	-0.06868961
226	0xbb751bbc	-0.0037400564
227	0x3d9a224c	0.07526073
228	0x3e15140f	0.14558433
229	0x3e6f37a2	0.23361066
230	0x3dec8995	0.11549679
231	0x3c8b8b9b	0.017034343
232	0x3d8b574e	0.068037614
233	0x3c186ac4	0.009302799
234	0xbd900178	-0.0703153
235	0xbd8f08f3	-0.06984129
236	0x3cde4bf7	0.027135832
237	0x3d13059e	0.03589403
238	0xbcb9c016	-0.022674602
239	0xbdd0585a	-0.10173102
240	0x3dc0d5e2	0.09415795
241	0x3df0e824	0.11763027
242	0x3cf29d70	0.029616088
243	0xbd822070	-0.06353843
244	0xbdbc56cd	-0.091962434
245	0x3e0e1bd1	0.13877799
246	0xbd6c073d	-0.05762409
247	0xbe158dc8	-0.14604867
248	0xbdbb7b88	-0.09154421
249	0xbdc058ac	-0.09391913
250	0xbbbef444	-0.0058274586
251	0xbc6eee9d	-0.014583257
252	0xbd9194bd	-0.07108448
253	0xbe2d99cd	-0.16953202
254	0xbdb742ff	-0.08948325
255	0x3d9eff20	0.07763505

_orig_mod.conv2.0.bias f4 [32]
0	0xbca84c6e	-0.020544257
1	0x3c246304	0.010033373
2	0x3d5da76e	0.05411475
3	0xbd1833db	-0.03715883
4	0xbcaecea6	-0.021338772
5	0x3cbeb451	0.023279341
6	0x3c86cfeb	0.016456565
7	0xbd20c0ee	-0.039246492
8	0x3ccabe33	0.024748897
9	0xbd2185a1	-0.03943408
10	0xbd4aac23	-0.04948057
11	0xbc892769	-0.016742425
12	0x3c0c184c	0.008550715
13	0xbd3a92fd	-0.045550335
14	0x3ca43045	0.020042548
15	0x3b71e953	0.0036912754
16	0x3d5900a0	0.05297911
17	0xbc4a0fe5	-0.012332891
18	0x3bdcb7e3	0.006735788
19	0xbdb5ac32	-0.08870734
20	0x3d0b31de	0.033983104
21	0xbd239e0a	-0.03994564
22	0xbd325102	-0.043534286
23	0x3cac73ca	0.021051306
24	0xbd509205	-0.050920505
25	0xbcf5a202	-0.029984478
26	0xbca81af3	-0.020520663
27	0xbd50f195	-0.05101164
28	0xbbfee25d	-0.0077784494
29	0x3c55114f	0.013004615
30	0x3c9cbd74	0.019133307
31	0xb78a1bc0	-1.6463804e-05

_orig_mod.out.weight f4 [10, 1568]
0	0x3c211bd0	0.009833291
1	0xbce3d4bb	-0.027811399
2	0xbcd162d7	-0.025559826
3	0xbc982d11	-0.018576177
4	0xbd23914f	-0.0399335
5	0xbb1153f3	-0.0022175282
6	0x3c5e971c	0.013585832
7	0xbd903db9	-0.07043023
8	0xbce1fe80	-0.027587175
9	0x3d1ef6d3	0.03880961
10	0x3adcf88e	0.0016858743
11	0x3d09c0aa	0.033631004
12	0x3b8eceea	0.004358162
13	0xbd439e8d	-0.047758628
14	0xbdd7da54	-0.1053969
15	0x3cf104f1	0.029421302
16	0x3d3efcc0	0.04662776
17	0x3c871798	0.016490743
18	0xbd9770cc	-0.07394561
19	0xbcf81bd4	-0.030286707
20	0xbc561c36	-0.013068249
21	0xbd01b3f9	-0.031665776
22	0x3c78a01f	0.015174895
23	0x3c9b2d00	0.018942356
24	0xbd937985	-0.072009124
25	0xbcf850bd	-0.030311937
26	0x3d0f77fd	0.03502654
27	0x3caf510e	0.021400955
28	0x3c087265	0.008328055
29	0xbc32b37b	-0.010907049
30	0xbcd81232	-0.026375864
31	0xbc652423	-0.013985666
32	0xbc1f1b55	-0.009711106
33	0x3d47bc1b	0.048763376
34	0x3acae67b	0.0015480065
35	0x3c309578	0.010777824
36	0x3917bd72	0.00014471056
37	0xbcb96b79	-0.022634255
38	0x3c767b31	0.01504402
39	0x3ce5f5c4	0.028071292
40	0xbd196505	-0.037449855
41	0xbd4e1569	-0.050313387
42	0xbc1f43eb	-0.009720783
43	0xbcccf7b6	-0.025020462
44	0xbd02bcf4	-0.03191848
45	0xbce7d95f	-0.028301893
46	0xbd040734	-0.032233432
47	0xbbe1316c	-0.0068723466
48	0x3bce45f1	0.0062949588
49	0xbd221054	-0.039566353
50	0xbd98a150	-0.07452643
51	0x3ccd190c	0.025036357
52	0xbcb51e97	-0.022109313
53	0x3d34e48f	0.044163283
54	0xbd7456cf	-0.0596531
55	0xbd9ed640	-0.07755709
56	0xbd562cb7	-0.052288737
57	0xbd45b027	-0.048263695
58	0xbd8a2f5e	-0.06747316
59	0x3cf533e9	0.02993198
60	0x3d5beafb	0.05369089
61	0x3d68a4a1	0.056797627
62	0xbd158c59	-0.0365108
63	0xbd0fb3dc	-0.035083637
64	0xbdc06e61	-0.09396053
65	0xbc4c75df	-0.0124792745
66	0x3e026449	0.12733568
67	0x3db4d591	0.08829797
68	0x3c718d15	0.014743109
69	0xbd7bed2e	-0.06150549
70	0xbc8bf014	-0.017082252
71	0xbd9f0eb5	-0.07766477
72	0xbe2e4df5	-0.17021926
73	0xbce5d23d	-0.028054351
74	0x3af3970d	0.0018584445
75	0x3d542621	0.051794175
76	0xbd8e35ea	-0.06943877
77	0xbca2abf2	-0.01985738
78	0x3c3e292c	0.011606496
79	0xbce881df	-0.02838224
80	0xbd9e8f42	-0.07742168
81	0xbd98254d	-0.074289896
82	0xbcf79d0e	-0.030226257
83	0x3d15cf40	0.036574602
84	0xbb14f84d	-0.0022731007
85	0x3c85fbe0	0.016355455
86	0x3d4b3790	0.049613535
87	0x3b9dd029	0.0048160744
88	0xbd7dfdad	-0.062009502
89	0xbdaa6eb4	-0.08321896
90	0xbca3acde	-0.01997989
91	0xbc2526b7	-0.010080031
92	0xbc6cf5f5	-0.014462938
93	0x3cf4e2e4	0.029893346
94	0x3bfafcf8	0.0076595508
95	0xbce02bd9	-0.027364658
96	0xbd6b5e7e	-0.05746316
97	0xbd532524	-0.051549092
98	0xbcdc6fce	-0.026908781
99	0xbdec3f81	-0.1153555
100	0xbd1c27f8	-0.038124055
101	0xbb540ccb	-0.0032356258
102	0x3c1bc016	0.009506246
103	0x3cac3052	0.021019135
104	0xbcbdce37	-0.02316962
105	0xbd0c6cd1	-0.034283463
106	0xbd8b0419	-0.06787891
107	0x3c593f78	0.013259761
108	0x3c11e336	0.008904269
109	0xbaf8b7fa	-0.0018975728
110	0x3d339edb	0.04385267
111	0x3c0ff287	0.00878585
112	0xbd6d67f6	-0.057960473
113	0xbcae9765	-0.021312425
114	0x3c260808	0.010133751
115	0x3d0ac92a	0.03388325
116	0x3bf14202	0.007362605
117	0xbc68a003	-0.014198306
118	0xb9afde63	-0.00033544292
119	0xbdab9bf9	-0.08379359
120	0xbbd3afdb	-0.0064601726
121	0xbda1c0fc	-0.07898137
122	0xbd64487f	-0.0557332
123	0x3d17ab7d	0.03702878
124	0x3d03860e	0.032110266
125	0x3d78803d	0.060669173
126	0xbd42c9df	-0.0475558
127	0x3d519fbf	0.051177736
128	0x3ac33970	0.0014894437
129	0xbd98bb8f	-0.07457649
130	0x3b6cd098	0.0036135074
131	0x3d879ee4	0.06622103
132	0x3a359113	0.000692622
133	0xbd219f22	-0.0394584
134	0x3cf78832	0.03021631
135	0x3d1f9463	0.038959872
136	0x3d0852ba	0.03328202
137	0xbb7c9e0d	-0.0038546354
138	0xbcfaa241	-0.030594947
139	0xbdd9cabb	-0.10634371
140	0xbcd8b891	-0.026455196
141	0x3c42ef13	0.01189782
142	0x3d4954f3	0.04915328
143	0x3cace3e9	0.02110477
144	0xbe338dde	-0.17534587
145	0xbe289557	-0.16463219
146	0xbde151d2	-0.11001934
147	0xbd42c3a6	-0.047549866
148	0xbdc7fa40	-0.09764528
149	0xbd156735	-0.03647538
150	0x3ca69e90	0.02033928
151	0x3cc968c6	0.024586093
152	0x3ad70042	0.0016403275
153	0x3d2d34c0	0.042286634
154	0xbd7c0135	-0.06152459
155	0xbd470670	-0.048590124
156	0x3c9e406f	0.019317834
157	0x3b53f6a3	0.0032343052
158	0xbce2500e	-0.027626064
159	0xbd623375	-0.055224854
160	0xbd58ce42	-0.052931078
161	0xbce82d19	-0.028341817
162	0xbd8ab93e	-0.067736134
163	0x3d2fab93	0.042888235
164	0x3ce95063	0.028480714
165	0xbd024aab	-0.03180949
166	0x3c9d14c5	0.019174943
167	0xbd50689a	-0.050881006
168	0xbd132201	-0.0359211
169	0xbd1fe802	-0.03903962
170	0x3c2a40d2	0.010391431
171	0xbcabc606	-0.020968448
172	0xbd3f39af	-0.04668587
173	0xbd905b0c	-0.07048616
174	0xbde99afa	-0.114065126
175	0x3cba3f07	0.022735132
176	0x3d46691b	0.04844008
177	0xbcf9af30	-0.030479044
178	0xbe0ac005	-0.13549812
179	0xbcff200a	-0.031143207
180	0x3da821d3	0.082095765
181	0xba0a673f	-0.0005279667
182	0xbbe1c3ab	-0.0068897805
183	0x3cefe3a8	0.02928336
184	0x3cb2e8d8	0.021839544
185	0xbc9d8f93	-0.0192335
186	0x3c822eb8	0.015891418
187	0x3d5c3725	0.053763527
188	0x3b2c9683	0.002633483
189	0x3c13d4ab	0.009022872
190	0x3c4bfab3	0.012449908
191	0x3c82a565	0.015948007
192	0xbcd8d0f9	-0.026466833
193	0xbcd14fcb	-0.025550744
194	0xbb224f74	-0.0024766596
195	0xbcaeb6bf	-0.021327375
196	0xbb173cca	-0.0023077005
197	0xbe10f30e	-0.14155218
198	0xbc9d6f0a	-0.019217987
199	0x3d69e314	0.057101324
200	0xbc4a2657	-0.0123382425
201	0xbcbcfc3a	-0.02306949
202	0xbd20f910	-0.039300025
203	0xbc3aea33	-0.0114083765
204	0xbdc4e35b	-0.09613677
205	0x3aeb4d7d	0.001795217
206	0xbd75d5cc	-0.060018346
207	0xbdb251cc	-0.08707008
208	0xbc3f11a9	-0.011661925
209	0x3cf1eaae	0.02953085
210	0xbd34c09d	-0.044129003
211	0x3d49f779	0.049308274
212	0x3b3d103c	0.0028848788
213	0x3c550c5e	0.013003437
214	0x3c824954	0.015904106
215	0x3d941264	0.0723007
216	0x3dd8286b	0.10554584
217	0xbd1a5a07	-0.037683513
218	0x3d3a303d	0.04545616
219	0x3d698045	0.057007093
220	0xbc85584f	-0.01627746
221	0x3cfd6760	0.030933082
222	0x3d06579f	0.032798406
223	0x3dcb03f6	0.09912865
224	0xbd7da07a	-0.06192062
225	0x3d4da0dd	0.05020224
226	0x3cf2ff17	0.029662652
227	0xbdce4f97	-0.10073774
228	0xbb822cad	-0.003972611
229	0xb98cca32	-0.00026853528
230	0xbcef8ba9	-0.0292414
231	0x3c41009c	0.01177993
232	0xbca50b93	-0.02014712
233	0xbc951bda	-0.018201757
234	0xbdb49aa6	-0.08818559
235	0xbdd16625	-0.10224561
236	0xbde55d99	-0.11199493
237	0xbd8b6a8c	-0.068074316
238	0xbc1fe6db	-0.00975963
239	0x3c800a3e	0.015629884
240	0x3c11adae	0.008891506
241	0xbc315126	-0.01082257
242	0xbdfa9b2b	-0.12236627
243	0xbdd46f5d	-0.10372803
244	0xbd4b755a	-0.049672462
245	0xbd47a8b5	-0.048744876
246	0xbcccbe8b	-0.024993202
247	0xbd096f35	-0.03355332
248	0xbc417c70	-0.011809453
249	0xbd1b201a	-0.03787241
250	0xbcb17ee2	-0.021666948
251	0xbc88425a	-0.016633201
252	0xbb8515f0	-0.004061453
253	0xbb3f8f90	-0.0029229857
254	0xbb3042a1	-0.0026895183
255	0x3d0ae8e2	0.0339135

_orig_mod.out.bias f4 [10]
0	0x3bf6808d	0.0075226487
1	0xbc9f1381	-0.01941848
2	0xbc8fb97b	-0.017544499
3	0xbbd9ab87	-0.006642762
4	0x3c1647b5	0.00917237
5	0x3bf36936	0.0074283136
6	0x3c5e8bc5	0.013583128
7	0xbd206ff9	-0.039169285
8	0x3c90f71d	0.017695958
9	0xba892dff	-0.0010465978
